…
2024-02-09 11:46:39.827800: I tensorflow/core/common_runtime/gpu/gpu_device.cc:1639] Created device /job:localhost/replica:0/task:0/device:GPU:0 with 9804 MB memory:  -> device: 0, name: NVIDIA GeForce RTX 2080 Ti, pci bus id: 0000:4c:00.0, compute capability: 7.5
I0209 11:46:42.772404 139705464682304 main.py:69] [DATASET loaded!] hapt
(None, 100, 6)
(None, 12)
Model: "sequential"
_________________________________________________________________
 Layer (type)                Output Shape              Param #   
=================================================================
 bidirectional (Bidirection  (None, 100, 64)           9984      
 al)                                                             
                                                                 
 batch_normalization (Batch  (None, 100, 64)           256       
 Normalization)                                                  
                                                                 
 bidirectional_1 (Bidirecti  (None, 100, 64)           24832     
 onal)                                                           
                                                                 
 batch_normalization_1 (Bat  (None, 100, 64)           256       
 chNormalization)                                                
                                                                 
 bidirectional_2 (Bidirecti  (None, 100, 64)           24832     
 onal)                                                           
                                                                 
 batch_normalization_2 (Bat  (None, 100, 64)           256       
 chNormalization)                                                
                                                                 
 bidirectional_3 (Bidirecti  (None, 64)                24832     
 onal)                                                           
                                                                 
 batch_normalization_3 (Bat  (None, 64)                256       
 chNormalization)                                                
                                                                 
 dense (Dense)               (None, 16)                1040      
                                                                 
 dropout (Dropout)           (None, 16)                0         
                                                                 
 dense_1 (Dense)             (None, 12)                204       
                                                                 
=================================================================
Total params: 86748 (338.86 KB)
Trainable params: 86236 (336.86 KB)
Non-trainable params: 512 (2.00 KB)
_________________________________________________________________
I0209 11:46:43.792085 139705464682304 main.py:95] Starting model training...
I0209 11:46:43.792554 139705464682304 train.py:26] Initializing from scratch. Checkpoints stored in /home/RUS_CIP/st184914/dl-lab-23w-team10/experiments_har/run_2024-02-09T11-46-38-339333/ckpts
…
2024-02-09 11:55:41.419153: I tensorflow/core/common_runtime/gpu/gpu_device.cc:1639] Created device /job:localhost/replica:0/task:0/device:GPU:0 with 9804 MB memory:  -> device: 0, name: NVIDIA GeForce RTX 2080 Ti, pci bus id: 0000:4c:00.0, compute capability: 7.5
I0209 11:55:44.432279 140127062329152 main.py:69] [DATASET loaded!] hapt
(None, 100, 6)
(None, 12)
Model: "sequential"
_________________________________________________________________
 Layer (type)                Output Shape              Param #   
=================================================================
 lstm (LSTM)                 (None, 100, 128)          69120     
                                                                 
 batch_normalization (Batch  (None, 100, 128)          512       
 Normalization)                                                  
                                                                 
 lstm_1 (LSTM)               (None, 100, 128)          131584    
                                                                 
 batch_normalization_1 (Bat  (None, 100, 128)          512       
 chNormalization)                                                
                                                                 
 lstm_2 (LSTM)               (None, 128)               131584    
                                                                 
 batch_normalization_2 (Bat  (None, 128)               512       
 chNormalization)                                                
                                                                 
 dense (Dense)               (None, 16)                2064      
                                                                 
 dropout (Dropout)           (None, 16)                0         
                                                                 
 dense_1 (Dense)             (None, 12)                204       
                                                                 
=================================================================
Total params: 336092 (1.28 MB)
Trainable params: 335324 (1.28 MB)
Non-trainable params: 768 (3.00 KB)
_________________________________________________________________
I0209 11:55:44.814034 140127062329152 main.py:95] Starting model training...
I0209 11:55:44.814503 140127062329152 train.py:26] Initializing from scratch. Checkpoints stored in /home/RUS_CIP/st184914/dl-lab-23w-team10/experiments_har/run_2024-02-09T11-55-39-967277/ckpts
…
2024-02-09 12:02:54.004252: I tensorflow/core/common_runtime/gpu/gpu_device.cc:1639] Created device /job:localhost/replica:0/task:0/device:GPU:0 with 9804 MB memory:  -> device: 0, name: NVIDIA GeForce RTX 2080 Ti, pci bus id: 0000:4c:00.0, compute capability: 7.5
I0209 12:02:56.826296 140272694122304 main.py:69] [DATASET loaded!] hapt
(None, 100, 6)
(None, 12)
Model: "sequential"
_________________________________________________________________
 Layer (type)                Output Shape              Param #   
=================================================================
 gru (GRU)                   (None, 100, 32)           3840      
                                                                 
 batch_normalization (Batch  (None, 100, 32)           128       
 Normalization)                                                  
                                                                 
 gru_1 (GRU)                 (None, 100, 32)           6336      
                                                                 
 batch_normalization_1 (Bat  (None, 100, 32)           128       
 chNormalization)                                                
                                                                 
 gru_2 (GRU)                 (None, 100, 32)           6336      
                                                                 
 batch_normalization_2 (Bat  (None, 100, 32)           128       
 chNormalization)                                                
                                                                 
 gru_3 (GRU)                 (None, 32)                6336      
                                                                 
 batch_normalization_3 (Bat  (None, 32)                128       
 chNormalization)                                                
                                                                 
 dense (Dense)               (None, 16)                528       
                                                                 
 dropout (Dropout)           (None, 16)                0         
                                                                 
 dense_1 (Dense)             (None, 12)                204       
                                                                 
=================================================================
Total params: 24092 (94.11 KB)
Trainable params: 23836 (93.11 KB)
Non-trainable params: 256 (1.00 KB)
_________________________________________________________________
I0209 12:02:57.253787 140272694122304 main.py:95] Starting model training...
I0209 12:02:57.254279 140272694122304 train.py:26] Initializing from scratch. Checkpoints stored in /home/RUS_CIP/st184914/dl-lab-23w-team10/experiments_har/run_2024-02-09T12-02-52-597865/ckpts
…
2024-02-09 12:08:55.096218: I tensorflow/core/common_runtime/gpu/gpu_device.cc:1639] Created device /job:localhost/replica:0/task:0/device:GPU:0 with 9804 MB memory:  -> device: 0, name: NVIDIA GeForce RTX 2080 Ti, pci bus id: 0000:4c:00.0, compute capability: 7.5
I0209 12:08:57.946805 140695378388800 main.py:69] [DATASET loaded!] hapt
(None, 100, 6)
(None, 12)
Model: "sequential"
_________________________________________________________________
 Layer (type)                Output Shape              Param #   
=================================================================
 conv1d (Conv1D)             (None, 98, 64)            1216      
                                                                 
 batch_normalization (Batch  (None, 98, 64)            256       
 Normalization)                                                  
                                                                 
 dropout (Dropout)           (None, 98, 64)            0         
                                                                 
 conv1d_1 (Conv1D)           (None, 96, 64)            12352     
                                                                 
 batch_normalization_1 (Bat  (None, 96, 64)            256       
 chNormalization)                                                
                                                                 
 dropout_1 (Dropout)         (None, 96, 64)            0         
                                                                 
 global_max_pooling1d (Glob  (None, 64)                0         
 alMaxPooling1D)                                                 
                                                                 
 dense (Dense)               (None, 16)                1040      
                                                                 
 dropout_2 (Dropout)         (None, 16)                0         
                                                                 
 dense_1 (Dense)             (None, 12)                204       
                                                                 
=================================================================
Total params: 15324 (59.86 KB)
Trainable params: 15068 (58.86 KB)
Non-trainable params: 256 (1.00 KB)
_________________________________________________________________
I0209 12:08:58.014695 140695378388800 main.py:95] Starting model training...
I0209 12:08:58.015262 140695378388800 train.py:26] Initializing from scratch. Checkpoints stored in /home/RUS_CIP/st184914/dl-lab-23w-team10/experiments_har/run_2024-02-09T12-08-53-651044/ckpts
…
