…
I1214 11:41:19.229331 140666663466816 architectures.py:212] transfer_model output shape: (None, 2)
I1214 11:41:19.229421 140666663466816 main.py:74] ============ RUN 0================
I1214 11:41:19.229709 140666663466816 main.py:76] Starting model training...
Model: "transfer_model"
_________________________________________________________________
 Layer (type)                Output Shape              Param #   
=================================================================
 input_1 (InputLayer)        [(None, 256, 256, 3)]     0         
                                                                 
 densenet121 (Functional)    (None, 8, 8, 1024)        7037504   
                                                                 
 global_average_pooling2d (  (None, 1024)              0         
 GlobalAveragePooling2D)                                         
                                                                 
 dropout (Dropout)           (None, 1024)              0         
                                                                 
 dense (Dense)               (None, 5)                 5125      
                                                                 
 dropout_1 (Dropout)         (None, 5)                 0         
                                                                 
 dense_1 (Dense)             (None, 2)                 12        
                                                                 
 dropout_2 (Dropout)         (None, 2)                 0         
                                                                 
 dense_2 (Dense)             (None, 2)                 6         
                                                                 
=================================================================
Total params: 7042647 (26.87 MB)
Trainable params: 5143 (20.09 KB)
Non-trainable params: 7037504 (26.85 MB)
_________________________________________________________________
I1214 11:41:19.247135 140666663466816 train.py:26] Initializing from scratch. Checkpoints stored in /home/RUS_CIP/st184584/dl-lab-23w-team10/experiments/run_2023-12-14T11-41-13-221007/ckpts
…
