…
I1217 12:21:26.825516 140098350241600 architectures.py:207] transfer_model input shape:  (None, 256, 256, 3)
I1217 12:21:26.825884 140098350241600 architectures.py:208] transfer_model output shape: (None, 2)
I1217 12:21:26.826245 140098350241600 main.py:53] Starting model training...
./tfrecords_data_grahams/
Model: "transfer_model"
_________________________________________________________________
 Layer (type)                Output Shape              Param #   
=================================================================
 input_1 (InputLayer)        [(None, 256, 256, 3)]     0         
                                                                 
 inception_v3 (Functional)   (None, 6, 6, 2048)        21802784  
                                                                 
 global_average_pooling2d (  (None, 2048)              0         
 GlobalAveragePooling2D)                                         
                                                                 
 dropout (Dropout)           (None, 2048)              0         
                                                                 
 dense (Dense)               (None, 5)                 10245     
                                                                 
 dropout_1 (Dropout)         (None, 5)                 0         
                                                                 
 dense_1 (Dense)             (None, 2)                 12        
                                                                 
 dropout_2 (Dropout)         (None, 2)                 0         
                                                                 
 dense_2 (Dense)             (None, 2)                 6         
                                                                 
=================================================================
Total params: 21813047 (83.21 MB)
Trainable params: 10263 (40.09 KB)
Non-trainable params: 21802784 (83.17 MB)
_________________________________________________________________
I1217 12:21:26.838277 140098350241600 train.py:26] Initializing from scratch. Checkpoints stored in /home/RUS_CIP/st184914/dl-lab-23w-team10/experiments/run_2023-12-17T12-21-21-868527/ckpts
…
