…
I1213 20:55:16.520779 140154214930240 architectures.py:95] cnn_1 output shape: (None, 2)
I1213 20:55:16.520871 140154214930240 main.py:74] ============ RUN 0================
I1213 20:55:16.521191 140154214930240 main.py:76] Starting model training...
Model: "cnn_1"
_________________________________________________________________
 Layer (type)                Output Shape              Param #   
=================================================================
 input_1 (InputLayer)        [(None, 256, 256, 3)]     0         
                                                                 
 conv2d (Conv2D)             (None, 256, 256, 4)       592       
                                                                 
 activation (Activation)     (None, 256, 256, 4)       0         
                                                                 
 conv2d_1 (Conv2D)           (None, 256, 256, 8)       1576      
                                                                 
 activation_1 (Activation)   (None, 256, 256, 8)       0         
                                                                 
 dropout (Dropout)           (None, 256, 256, 8)       0         
                                                                 
 conv2d_2 (Conv2D)           (None, 256, 256, 16)      6288      
                                                                 
 activation_2 (Activation)   (None, 256, 256, 16)      0         
                                                                 
 max_pooling2d (MaxPooling2  (None, 128, 128, 16)      0         
 D)                                                              
                                                                 
 dropout_1 (Dropout)         (None, 128, 128, 16)      0         
                                                                 
 conv2d_3 (Conv2D)           (None, 128, 128, 32)      25120     
                                                                 
 activation_3 (Activation)   (None, 128, 128, 32)      0         
                                                                 
 max_pooling2d_1 (MaxPoolin  (None, 64, 64, 32)        0         
 g2D)                                                            
                                                                 
 global_average_pooling2d (  (None, 32)                0         
 GlobalAveragePooling2D)                                         
                                                                 
 dropout_2 (Dropout)         (None, 32)                0         
                                                                 
 dense (Dense)               (None, 32)                1056      
                                                                 
 dropout_3 (Dropout)         (None, 32)                0         
                                                                 
 dense_1 (Dense)             (None, 16)                528       
                                                                 
 dropout_4 (Dropout)         (None, 16)                0         
                                                                 
 dense_2 (Dense)             (None, 4)                 68        
                                                                 
 dense_3 (Dense)             (None, 2)                 10        
                                                                 
=================================================================
Total params: 35238 (137.65 KB)
Trainable params: 35238 (137.65 KB)
Non-trainable params: 0 (0.00 Byte)
_________________________________________________________________
I1213 20:55:16.526020 140154214930240 train.py:26] Initializing from scratch. Checkpoints stored in /home/RUS_CIP/st184584/dl-lab-23w-team10/experiments/run_2023-12-13T20-55-13-184676/ckpts
…
